…
91011121314151617from keras.models import Sequentialfrom keras.layers import Dense, Dropout, Flatten# define the modelmodel = Sequential()# 将输入展平, 不影响批量大小model.add(Flatten(input_shape=X_train.shape[1:]))# 全连接层model.add(Dense(512, activation='relu'))model.add(Dropout(0.2))model.add(Dense(512, activation='relu'))model.add(Dropout(0.2))model.add(Dense(10, activation='softmax'))# summarize the modelmodel.summary() _________________________________________________________________ Layer (type) Output Shape Param # ================================================================= flatten_5 (Flatten) (None, 784) 0 _________________________________________________________________ dense_13 (Dense) (None, 512) 401920 _________________________________________________________________ dropout_9 (Dropout) (None, 512) 0 _________________________________________________________________ dense_14 (Dense) (None, 512) 262656 _________________________________________________________________ dropout_10 (Dropout) (None, 512) 0 _________________________________________________________________ dense_15 (Dense) (None, 10) 5130 ================================================================= Total params: 669,706 Trainable params: 669,706 Non-trainable params: 0 _________________________________________________________________7. Compile the Model12345# compile the modelmodel.compile(loss='categorical_crossentropy', optimizer='rmsprop', metrics=['accuracy'])# optimizer 优化器 如 rmsprop sgd monentum nag adagrad adadelta rms
…
