…
pout(<span class="number">0.2</span>))</span><br><span class="line">model.add(Dense(<span class="number">10</span>, activation=<span class="string">'softmax'</span>))</span><br><span class="line"></span><br><span class="line"><span class="comment"># summarize the model</span></span><br><span class="line">model.summary()</span><br></pre></td></tr></table></figure><pre><code>_________________________________________________________________Layer (type)                 Output Shape              Param #   =================================================================flatten_5 (Flatten)          (None, 784)               0         _________________________________________________________________dense_13 (Dense)             (None, 512)               401920    _________________________________________________________________dropout_9 (Dropout)          (None, 512)               0         _________________________________________________________________dense_14 (Dense)             (None, 512)               262656    _________________________________________________________________dropout_10 (Dropout)         (None, 512)               0         _________________________________________________________________dense_15 (Dense)             (None, 10)                5130      =================================================================Total params: 669,706Trainable params: 669,706Non-trainable params: 0_________________________________________________________________</code></pre><h3 id="7-Compile-the-Model"><a href="#7-Compile-the-Model" class="headerlink" title="7. Compile the Model"></a>7. Compile the Model</h3><figure class="highlight python"><table><tr><
…
